…
WARNING 2025-03-21T23:57:34 | mmf: Key distributed is not present in registry, returning default value of None
2025-03-21T23:57:34 | VisualBERT.mmf.utils.checkpoint: Checkpoint loaded.
2025-03-21T23:57:34 | VisualBERT.mmf.utils.checkpoint: Current num updates: 0
2025-03-21T23:57:34 | VisualBERT.mmf.utils.checkpoint: Current iteration: 0
2025-03-21T23:57:34 | VisualBERT.mmf.utils.checkpoint: Current epoch: 0
2025-03-21T23:57:34 | VisualBERT.mmf.trainers.mmf_trainer: ===== Model =====
2025-03-21T23:57:34 | VisualBERT.mmf.trainers.mmf_trainer: VisualBERT(
  (model): VisualBERTForClassification(
    (bert): VisualBERTBase(
      (embeddings): BertVisioLinguisticEmbeddings(
        (word_embeddings): Embedding(30522, 768, padding_idx=0)
        (position_embeddings): Embedding(512, 768)
        (token_type_embeddings): Embedding(2, 768)
        (LayerNorm): LayerNorm((768,), eps=1e-12, elementwise_affine=True)
        (dropout): Dropout(p=0.1, inplace=False)
        (token_type_embeddings_visual): Embedding(2, 768)
        (position_embeddings_visual): Embedding(512, 768)
        (projection): Linear(in_features=2048, out_features=768, bias=True)
      )
      (encoder): BertEncoder(
        (layer): ModuleList(
          (0-11): 12 x BertLayer(
            (attention): BertAttention(
              (self): BertSelfAttention(
                (query): Linear(in_features=768, out_features=768, bias=True)
                (key): Linear(in_features=768, out_features=768, bias=True)
                (value): Linear(in_features=768, out_features=768, bias=True)
                (dropout): Dropout(p=0.1, inplace=False)
                (matmul1): MatMul()
                (matmul2): MatMul()
                (softmax): Softmax(dim=-1)
                (add): Add()
                (mul): Mul()
                (clone): Clone()
              )
              (output): BertSelfOutput(
                (dense): Linear(in_features=768, out_features=768, bias=True)
                (LayerNorm): LayerNorm((768,), eps=1e-12, elementwise_affine=True)
                (dropout): Dropout(p=0.1, inplace=False)
                (add): Add()
              )
              (clone): Clone()
            )
            (intermediate): BertIntermediate(
              (dense): Linear(in_features=768, out_features=3072, bias=True)
              (intermediate_act_fn): GELU(approximate='none')
            )
            (output): BertOutput(
              (dense): Linear(in_features=3072, out_features=768, bias=True)
              (LayerNorm): LayerNorm((768,), eps=1e-12, elementwise_affine=True)
              (dropout): Dropout(p=0.1, inplace=False)
              (add): Add()
            )
            (clone): Clone()
          )
        )
      )
      (pooler): BertPooler(
        (dense): Linear(in_features=768, out_features=768, bias=True)
        (activation): Tanh()
      )
    )
    (dropout): Dropout(p=0.1, inplace=False)
    (classifier): Sequential(
      (0): BertPredictionHeadTransform(
        (dense): Linear(in_features=768, out_features=768, bias=True)
        (transform_act_fn): GELU(approximate='none')
        (LayerNorm): LayerNorm((768,), eps=1e-12, elementwise_affine=True)
      )
      (1): Linear(in_features=768, out_features=3129, bias=True)
    )
    (vqa_pooler): IndexSelect()
  )
  (losses): Losses(
    (losses): ModuleList(
      (0): MMFLoss(
        (loss_criterion): LogitBinaryCrossEntropy()
      )
    )
  )
)
2025-03-21T23:57:34 | VisualBERT.mmf.utils.general: Total Parameters: 114448953. Trained Parameters: 114448953
2025-03-21T23:57:34 | VisualBERT.mmf.trainers.mmf_trainer: Starting inference on val set
…
